linear_QNet/model/model.pth (torch, 290100 bytes, 6 tensors)

hidden_layers.0.weight f4 [256, 20]
000000 35 b9 79 3e 06 37 7d be 1e 3a 5d 3e 00 06 d0 3b
       0.24387057 -0.24728021 0.21604201 0.0063483715
000010 cb 1a 6e 3b 90 3f 94 3d 40 6b 64 bd 22 99 14 3a
       0.0036331888 0.07238686 -0.055766344 0.00056685705
000020 52 a6 81 3d 3c 46 de 3c c0 f6 1d be 3f 7c d9 bc
       0.06330551 0.0271331 -0.15426159 -0.026548503
000030 88 59 56 3d f7 4e 87 3e 47 c6 35 bd 04 79 b5 3d
       0.052331477 0.26427433 -0.044378545 0.088609725
000040 bd 4d f1 3d ab ba 9b be d4 2b 98 bc 37 6a 87 3a
       0.117824055 -0.30415854 -0.018575586 0.0010331337
000050 37 c1 5a be 76 cd ca bc e1 85 2d be ba c0 32 be
       -0.21362768 -0.024756175 -0.16945602 -0.17456332
000060 47 64 7c 3e a6 46 2d be d7 8d 37 3d 1b 60 bf bd
       0.24647628 -0.16921481 0.044813003 -0.093445025
000070 48 8e 29 3e 63 35 08 3b 24 a4 ea 3d 13 00 1f 3e
       0.16558182 0.0020783774 0.114570886 0.15527372
000080 c0 cd e7 3d 7a 3d fa 3d 6f e8 a9 be bd 4c 43 be
       0.113185406 0.12218757 -0.33185145 -0.19072242
000090 63 cf 05 be 31 13 01 3d 3b 87 ab bd c1 f7 4e 3d
       -0.13067393 0.031512443 -0.083754025 0.050529245
0000a0 41 76 56 3e 9e c9 25 bc a8 53 0c 3e b6 41 2e be
       0.20943548 -0.01011887 0.13703787 -0.17017254
0000b0 ae e3 87 bd 08 f3 32 3e d4 fd 7a 3d 8a 31 3a be
       -0.06635223 0.17475522 0.061277226 -0.1818296
0000c0 4e 2e 68 3d 6d 12 fb 3d 30 51 37 3d 70 46 8b 3c
       0.056684785 0.12259374 0.04475516 0.01700136
0000d0 a6 97 98 bd 04 a7 68 3d ad 62 88 bd 39 27 0a be
       -0.074508 0.056799904 -0.06659446 -0.13491525
0000e0 a3 19 26 3e 64 e1 38 be 5b b3 0b 3e f7 11 0e be
       0.16220717 -0.1805473 0.13642637 -0.1387404
0000f0 35 1f 0d be 76 03 bc bd f0 13 d9 bc c9 85 61 be
       -0.13781436 -0.091803476 -0.026498765 -0.22023691
000100 0c 7b 14 3e 68 f4 32 3e e8 46 2c 3e c5 2f 5d 3e
       0.14500064 0.17476046 0.16823924 0.21600254
000110 4a bb 83 bd 00 d7 34 be 00 60 ae b7 78 2e cc 3d
       -0.06432207 -0.17660141 -2.078712e-05 0.09969801
000120 d6 b6 29 be 98 46 3c be 9e cc 0a 3e d0 8a e0 3c
       -0.16573653 -0.18386304 0.13554618 0.027409941
000130 9b 93 47 be d2 95 da 3d 7e c3 85 be b2 b8 83 bc
       -0.19489901 0.10673107 -0.2612571 -0.01607928
000140 b7 74 ae 3d b2 92 5b 3e 74 d3 f4 3d e0 82 98 3b
       0.08518355 0.21442679 0.11954394 0.0046542734
000150 1d 2a 2e be c2 df ae bd a8 b3 5f bd 6d ab b0 3e
       -0.17008252 -0.08538772 -0.054614693 0.34505787
000160 49 93 9f 3d 21 90 08 3e 00 1b 25 be fa a8 05 3d
       0.07791764 0.13336231 -0.16123581 0.03263185
000170 ec 10 4e 3e c4 ec 0e be 44 24 94 be 16 07 23 3e
       0.20123643 -0.13957506 -0.28933918 0.15920672
000180 fc 33 35 3d 73 6e 06 be 97 33 b6 3d df 6a 9c bd
       0.04423903 -0.1312807 0.08896559 -0.076375715
000190 ca 53 f1 3d 24 8e 1c 3c d0 c2 76 3c 81 fd 31 be
       0.117835596 0.009555373 0.015061095 -0.1738186
0001a0 73 8d 4b 3d d0 a7 b6 3c 78 3a 91 3d ec b0 17 be
       0.049695443 0.022296816 0.0709123 -0.14813584
0001b0 be 9c fa bd 5e a0 84 3d 52 c6 d4 bd 07 7d af bb
       -0.122369274 0.064759 -0.10389389 -0.0053554806
0001c0 80 60 d0 ba 73 41 63 be 28 f7 ec be 06 6c 24 3e
       -0.00158979 -0.22192936 -0.46282315 0.16056833
0001d0 a2 1b 31 be 5c d7 99 3c c3 52 14 3c cc 55 ec bc
       -0.17295697 0.01877945 0.009052935 -0.028849505
0001e0 70 a9 66 bd 41 60 f0 bd 10 b8 48 3d 16 dc 61 3e
       -0.056313932 -0.11737109 0.04900366 0.22056612
0001f0 4b 15 82 3c c4 8c f8 3d ba 20 98 3d f0 69 e8 3d
       0.015879294 0.12136224 0.07428117 0.11348331
000200 de f2 20 3e 60 e8 45 bc dc 75 a3 3d 5c 39 84 bd
       0.15717646 -0.012079328 0.07981464 -0.06456253
000210 52 6a 5e 3e bc b4 63 3d 3c 8a b1 bd 74 03 50 be
       0.21720245 0.055592284 -0.08668944 -0.20313817
000220 20 d8 5b 3d ce 13 39 be 24 d9 4f 3d 53 f0 3b be
       0.05367291 -0.18073961 0.05074419 -0.18353395
000230 b8 6c 93 bd 70 93 f5 3c da 10 01 be e2 5b 12 3e
       -0.07198471 0.02997753 -0.12604085 0.14292863
000240 d0 d1 b1 bc d8 f8 84 3d 7e 13 3b 3e 16 f0 37 3e
       -0.021706492 0.06492776 0.18269154 0.1796268
000250 38 45 39 3d 16 59 0b 3e 80 79 fc 3c 40 1b 90 bd
       0.045232028 0.13608202 0.030819654 -0.070364475
000260 84 01 63 3e 8b e4 35 be 10 12 a5 3d ae ef 21 be
       0.22168547 -0.17762963 0.08060086 -0.15814087
000270 ec de 06 bd fa d0 3b 3e 88 7b 62 be 0c 6f 56 be
       -0.03292744 0.18341437 -0.22117436 -0.20940799
000280 29 3b 9b 3b 91 6e 2a 3e 96 95 24 3e 0c 8f 13 be
       0.004737277 0.1664374 0.16072688 -0.14410037
000290 f4 d9 6a be f4 ec 44 be bb ec 3c be 00 d5 2b 3e
       -0.22934705 -0.19231015 -0.1844968 0.16780472
0002a0 7d 23 30 3e c1 78 11 be 14 a0 c0 bd c0 ab 50 3e
       0.17201038 -0.1420622 -0.094055325 0.20378017
0002b0 36 c8 1d 3e e0 78 05 be 5e a5 86 be 1c f3 4e bd
       0.15408406 -0.13034391 -0.2629804 -0.050524816
0002c0 d3 a2 a1 3d c0 94 53 be dc e8 02 3e 6b 5e 15 be
       0.078923844 -0.20662212 0.12784141 -0.14586799
0002d0 c0 66 90 3d 00 08 8e 38 cc 3c 4d 3e 36 df 5a 3e
       0.07050848 6.772578e-05 0.20042723 0.2137421
0002e0 97 36 e6 bd ee 0f 51 be 00 d0 b6 3c 8c b9 1d bd
       -0.11240881 -0.20416233 0.022315979 -0.03850703
0002f0 c4 b0 45 be ba 28 19 3e 7c be 2b be a4 81 09 bd
       -0.19305712 0.14956942 -0.16771883 -0.0335709
000300 20 58 26 3d 7a 92 19 be 83 d0 ce bd 64 34 0e bd
       0.040611386 -0.14997283 -0.10098364 -0.034717932
000310 c0 74 3d 3d 9a 98 a2 bd f8 ab c7 3c ff 2d f7 bd
       0.04625392 -0.07939263 0.024373993 -0.1206932
000320 5c 15 d2 3d be f9 97 bc 3a dd 27 3e 4f 3d f3 bd
       0.1025798 -0.018551704 0.16392985 -0.11876928
000330 18 84 75 3e f8 cd e4 bd 40 81 45 be 40 81 4e be
       0.23976171 -0.11172098 -0.19287586 -0.20166492
000340 32 24 57 3b bc 78 10 3e 22 77 bc bd 30 bf 22 bc
       0.003282797 0.14108557 -0.0920241 -0.009933278
000350 d8 b9 d7 3d 40 45 0d 3e 70 7c 1e be ee 6a 63 3e
       0.10533494 0.13795948 -0.15477157 0.22208759
000360 30 58 43 3e a1 b4 4d 3e 31 c1 bf 3d d6 14 0f be
       0.1907661 0.20088436 0.0936302 -0.13972792
000370 cd 67 2a be 98 98 11 be 70 6a dc 3d c0 96 4c be
       -0.1664116 -0.14218366 0.10762489 -0.19979382
000380 2c e0 7f be 54 ce 38 3e 1c 09 4f be 4e 9a 85 be
       -0.24987859 0.18047458 -0.20218319 -0.26094288
000390 de 73 70 be e1 c0 5e be 88 45 db bc 44 e3 77 3d
       -0.234817 -0.21753265 -0.026766554 0.06051947
0003a0 4e b9 62 3e 29 14 14 3e 7f d3 2c be d4 ee 0d 3e
       0.22141 0.14460815 -0.16877554 0.13860637
0003b0 d6 c7 0c bd 40 e9 0c be f4 cf 67 3c 3c ae e2 bc
       -0.034370266 -0.13760853 0.014148701 -0.027670972
0003c0 fc fb 13 be 54 7e bb 3d 50 9c 8b 3c 62 c3 4b be
       -0.14451593 0.091549546 0.017042309 -0.19898751
0003d0 37 01 09 be e0 fd c4 3d 20 d3 21 3d 44 90 6c bd
       -0.1337937 0.09618735 0.039507985 -0.05775477
0003e0 fc 04 2b bd dc a5 05 3e 88 1b 3f be 98 15 50 be
       -0.0417528 0.13051552 -0.18662846 -0.20320737
0003f0 ca 4a 2d 3e c0 a5 ad 3c 70 b5 0e 3c 20 26 e6 3d
       0.16923061 0.0211972 0.00871025 0.112377405

hidden_layers.0.bias f4 [256]
000000 f7 c8 d2 bd 9c 4d 05 be 5e 43 e5 3d 05 18 92 3d
       -0.10292237 -0.13017887 0.1119449 0.071334876
000010 a6 61 1b be 26 09 b7 be 2d a9 ca 3d 50 df 41 bc
       -0.15173969 -0.35749167 0.09895549 -0.011833027
000020 9c 62 41 3e 2c 1d 96 3d c0 85 b9 bd c1 53 ed be
       0.18885273 0.07329783 -0.09058714 -0.46352962
000030 a2 7a a7 bd 7b 1c bb 3d 69 10 3d be 4c 5a ff 3d
       -0.08177687 0.091362916 -0.18463291 0.12468395
000040 d8 88 b0 3c cb 12 45 be 4f 0f 84 bd b9 d6 7a 3d
       0.021549627 -0.1924545 -0.064482324 0.06123993
000050 61 15 55 be 3c 11 cf bc 3c 7e 99 3d d7 05 01 3d
       -0.20808937 -0.025276773 0.074947804 0.03149971
000060 22 7e 01 be 56 95 0f bd 74 d9 84 3d dc 3e 0c 3e
       -0.12645772 -0.035054527 0.064867884 0.13695854
000070 b7 17 8d bd 49 dd c6 bd 31 bd b7 be 77 df 57 3d
       -0.06889289 -0.097101755 -0.3588653 0.052703347
000080 0e ae 57 be c9 43 43 be 05 b4 b9 bd 31 76 9a be
       -0.2106249 -0.19068827 -0.09067539 -0.30168298
000090 89 a5 72 be 5f 3d 3d 3e 28 ac 81 be e7 16 62 bb
       -0.23695959 0.18480442 -0.25326657 -0.0034498514
0000a0 ba ae 0e 3e 6c dc 78 bd f0 ef e0 3c 6b 6b 0d bd
       0.1393384 -0.060757086 0.027458161 -0.03452627
0000b0 ed 31 86 be 1d fb 8b bd 62 c2 e8 bd bd b5 62 be
       -0.26209965 -0.068350054 -0.113652006 -0.2213964
0000c0 b0 97 5c bc eb a0 8e be 99 bf c0 bd f3 72 5f 3e
       -0.0134638995 -0.27857146 -0.09411544 0.21821193
0000d0 80 2c 37 bc f3 60 74 be ec ba 8f be e9 d6 02 be
       -0.011180043 -0.23865108 -0.28072298 -0.12777294
0000e0 38 67 8b 3c 12 e4 24 bd 10 d6 12 3e d0 22 80 3d
       0.017016992 -0.040256567 0.14339471 0.0625664
0000f0 be 68 71 bd b4 99 9b bc 6c ed 02 be d2 23 8c be
       -0.05893778 -0.01899419 -0.12785882 -0.2737108
000100 e4 b4 3a 3e be 4b 82 be bf 76 85 be e4 26 df bd
       0.18233067 -0.25448412 -0.2606716 -0.1089609
000110 a4 c6 ce bd 56 3c 1a be 7d 28 2e be 41 5e 5b be
       -0.100964814 -0.15062079 -0.17007633 -0.21422674
000120 f0 e1 60 be 74 68 0b be 11 3e 20 bd c2 d7 32 3d
       -0.21961188 -0.13614064 -0.03912169 0.043662794
000130 10 52 21 bd d2 a2 50 3c bb 4a 14 3e 11 36 cb 3d
       -0.0393849 0.012734132 0.14481632 0.09922422
000140 32 4c 5a bd 5a 13 29 be e3 72 00 be 84 94 c5 bd
       -0.05329532 -0.16511288 -0.12543826 -0.09647468
000150 2e 87 87 be 7a 0b 43 be 12 8a 06 3e 06 6d 24 bd
       -0.2647032 -0.19047347 0.13138607 -0.040143035
000160 5c 14 e3 3d 0e 95 31 3d f8 94 6f bd 38 e8 6d 3d
       0.110878676 0.04335504 -0.058491677 0.05808279
000170 2b ae e2 bd 13 b1 ff bc 6c 58 c0 bd 3f 05 a6 be
       -0.11068376 -0.031212365 -0.09391865 -0.32425877
000180 5c 84 01 bd 4b af 86 be b1 85 84 be 72 16 99 be
       -0.03162037 -0.26305613 -0.25883248 -0.29899937
000190 f2 39 f6 bd 83 68 d3 bd d0 85 a7 3c 7c 17 e6 bd
       -0.12022771 -0.103226684 0.020449549 -0.11234948
0001a0 dc d1 40 be 70 4f 13 be c8 49 e4 3a 70 6a aa be
       -0.18830055 -0.14385772 0.0017417008 -0.3328433
0001b0 cd ce 9c 3d 88 b3 0c 3b 77 50 b2 be 89 16 30 be
       0.076566316 0.0021469314 -0.34827015 -0.17196096
0001c0 9b a3 84 3d 08 b0 e8 3d 94 8d 93 3c fe 15 26 be
       0.06476518 0.113617 0.018011846 -0.16219327
0001d0 25 51 48 be 16 06 0e be 24 ee 73 bd d3 93 8e bc
       -0.19562204 -0.13869509 -0.05955328 -0.017404472
0001e0 57 7d 84 be 3b 22 23 3d 4f 6c 3a bd fc 58 86 be
       -0.25876877 0.039827567 -0.045513447 -0.26239765
0001f0 95 2e b7 bd 75 dc c5 3d a4 bc 07 3e e7 73 90 bc
       -0.08944432 0.096611895 0.13255554 -0.017633392
000200 53 25 3c be 05 d6 89 bd 4f f7 b0 3c af 0e 4a 3e
       -0.18373613 -0.06730274 0.0216023 0.19732164
000210 af 70 82 be 5c c2 16 3e a1 a8 13 bd 4b 9c e7 bc
       -0.25476596 0.1472258 -0.03604949 -0.028272768
000220 90 7a f0 bd 56 29 bc bd 01 8c 76 3d 56 17 91 be
       -0.11742127 -0.09187572 0.060192112 -0.28338116
000230 c4 06 9a be 6b 36 c2 3d 93 f6 1b be 85 3d c1 bd
       -0.30083287 0.09483036 -0.1523078 -0.09435562
000240 75 10 6a 3e 9e 59 f3 3d 2a 32 29 be 1f 73 9b bd
       0.2285784 0.118823275 -0.16523042 -0.07590317
000250 76 3c 30 be 8e a2 aa bd e6 4e f9 bc a6 5f 72 be
       -0.17210564 -0.08331786 -0.03043313 -0.236693
000260 14 46 fd 3d ae 83 14 be 7e 4d 8e be 2b 77 66 3d
       0.12366882 -0.14503357 -0.27793497 0.05626599
000270 d2 3a 23 3e 3c f6 7d 3e 81 13 18 be d9 25 66 bc
       0.15940407 0.24800962 -0.1485119 -0.0140471095
000280 7b 3f 1f bd 2e 84 84 bd 64 fa da 3d 71 18 ed bd
       -0.0388789 -0.06470524 0.106922895 -0.115769275
000290 19 3b 49 be 42 5d 03 3e 12 04 2c bd 8d 12 5f be
       -0.1965145 0.12828544 -0.04199607 -0.2178442
0002a0 bc dc 60 3e 12 ed 9d be d7 4f 16 be 27 c3 3c bd
       0.21959203 -0.30844933 -0.14678894 -0.04608455
0002b0 50 db 1c 3e 84 bc 25 be 0e 1f 1f be 08 30 7b 3d
       0.15318036 -0.16185194 -0.1553919 0.061325103
0002c0 87 8f 19 be ec 2a 75 be 28 70 cb 3d a0 c1 b9 3d
       -0.14996158 -0.23942155 0.099335015 0.09070134
0002d0 4d 7c b5 bb 16 eb ba bd d1 bb 1b 3e 15 a1 91 bc
       -0.0055384994 -0.0912687 0.15208365 -0.017777005
0002e0 56 f2 41 be 73 30 c9 be dc e0 05 3e 9a e5 2f be
       -0.189401 -0.39294776 0.13074058 -0.1717743
0002f0 70 b2 ab 3c bb 70 b6 bd 70 c0 70 bd ca be c5 3d
       0.020959109 -0.089082204 -0.058777273 0.09655531
000300 8d 54 48 bc 64 8e c1 bd 5f e7 01 be e7 45 91 be
       -0.01222719 -0.09450987 -0.12685917 -0.28373644
000310 34 0d 85 be 9d 8e dc bd 80 62 c2 3d ea 7d 0c 3e
       -0.25986636 -0.10769389 0.09491444 0.13719907
000320 68 08 0a 3d 03 3f 91 be 2d 17 ec 3d 58 7c 1c 3d
       0.033699423 -0.28368387 0.11527858 0.03820452
000330 84 ad dd 3c 0a 13 8d be 66 61 11 3e 4b 4c 1e be
       0.027060278 -0.27553588 0.14197311 -0.15458791
000340 91 63 01 be bc 18 ce 3d 44 59 46 3e 04 ab 17 3e
       -0.12635638 0.100633115 0.1936999 0.14811331
000350 8a e5 e4 3d aa 9c a2 3d 68 af 80 bd 48 bc a5 bd
       0.111765936 0.079400375 -0.06283456 -0.080925524
000360 f3 55 1b be 20 ec 56 be bf c8 25 be 4c 99 2e 3e
       -0.15169506 -0.20988512 -0.1618986 0.17050666
000370 3a 42 a6 3d b2 67 8e bd 86 55 0c 3d d7 a8 13 be
       0.081181005 -0.06953372 0.03426125 -0.14419876
000380 18 5d 3a 3e aa 82 bc bd c1 1f e7 bd 80 d5 13 3e
       0.18199575 -0.0920461 -0.112853535 0.14436913
000390 e2 04 78 be 76 79 16 be 4d 72 ae bd de 7f 3c 3e
       -0.24220613 -0.14694771 -0.08517895 0.18408152
0003a0 80 bf 0c 3d 5f 41 92 be 32 2a 96 be ac ca 5f be
       0.034362316 -0.285655 -0.29329067 -0.21854657
0003b0 60 e2 4b 3d 95 31 f6 bc 8a 41 bb bd a0 5f 4e 3d
       0.049776435 -0.03005294 -0.0914336 0.050384164
0003c0 bb d1 3e bd c5 57 a7 bd ad 71 23 bd 64 17 1d be
       -0.046586733 -0.081710376 -0.03990333 -0.15340954
0003d0 1b d3 29 be 9c 56 92 3d 8d 7a 2f 3d 90 6f 3d be
       -0.16584437 0.07145426 0.042841483 -0.18499589
0003e0 7a 15 52 be ac ce 5c be 5b ec d0 bd 1c 11 a3 bd
       -0.20516005 -0.21563214 -0.10201331 -0.07962248
0003f0 4b e1 be 3d f8 16 93 3d 79 3f a4 bd d8 71 6f 3d
       0.09320315 0.07182115 -0.08019919 0.05845818

hidden_layers.1.weight f4 [256, 256]
000000 b8 65 53 ba f9 8c 82 bd 22 89 62 3d 72 07 3e 3c
       -0.00080641685 -0.06374545 0.05530656 0.011598455
000010 38 45 76 bd d9 df d9 3c 1a 4e 14 bd ae ed 42 bd
       -0.060124606 0.026595997 -0.036207296 -0.04758995
000020 10 7f 56 3c d0 e0 0e 3d fe bd ad bd 90 14 4a 3d
       0.0130918175 0.034882367 -0.08483504 0.049336016
000030 44 cf c7 3c 7e 2d 04 bd b0 3b e3 3c 74 2e 7f 3d
       0.024390824 -0.032269947 0.027738422 0.06230016
000040 00 56 fa bb 1f cc 0f bd 3b 19 ba 3c 86 10 ef 3c
       -0.0076396465 -0.035106774 0.022717109 0.029182684
000050 ca df 78 bc e6 8c 2e bd ec be 0d 3d 72 3b 9c 3d
       -0.015190074 -0.04261484 0.034605905 0.07628526
000060 dc 7d 2a bd 20 08 57 3c e4 74 b1 3c cc 11 8d 3c
       -0.041623935 0.013124496 0.021662183 0.0172204
000070 3b 2f 59 bd 6d 12 96 bd 20 e3 1f 3d 3b 55 6e bd
       -0.053023558 -0.07327733 0.039034963 -0.05818675
000080 94 f5 84 bc 0f c3 86 bd 9c 70 86 bd 9b a1 46 3d
       -0.016230382 -0.06580173 -0.06564447 0.048493963
000090 ca 74 4e 3d 34 72 f6 3c 22 0d 89 bd ea 81 79 3c
       0.050404347 0.030083753 -0.06691958 0.015228728
0000a0 10 60 a8 bc 7d 1c 22 bc 3e ba 2a bd a6 2d ef 3c
       -0.020553619 -0.009894487 -0.04168152 0.029196572
0000b0 70 7d 9c bc 80 88 0f 3d b4 14 6d 3d 9d bf fd 3b
       -0.019102782 0.035042286 0.057881072 0.0077437893
0000c0 be d1 57 3d f8 bf 73 bd 7d ae 79 3c 97 dc b7 3c
       0.05269026 -0.059509248 0.015239355 0.022444053
0000d0 ce 3d 08 3d 00 13 82 bd 48 c6 5e bd ee fe 7f bd
       0.033262067 -0.0635128 -0.054388314 -0.06249898
0000e0 05 40 d5 3c fe 7b 78 3d 8c 8f 42 bd 98 9b 50 bc
       0.026031503 0.060665123 -0.04750018 -0.012732409
0000f0 18 88 d8 3c e0 fc 5a bd 38 41 e6 bc 0c 80 0d bd
       0.026432082 -0.053463817 -0.02810727 -0.034545943
000100 b8 07 b1 bc 0d fe 6d bd 0d d6 9e 3a 80 44 78 bc
       -0.021610126 -0.05810361 0.0012118235 -0.01515305
000110 66 72 6d bc ed 3e ab 3c 06 f8 21 3d d4 8a 26 3b
       -0.014492607 0.020904029 0.039543174 0.0025412338
000120 90 94 87 3c b8 ca d0 bc 99 dc 94 3c 3f aa cb ba
       0.016550332 -0.025487289 0.018171595 -0.0015538408
000130 6a 3e 00 bd d2 c4 29 bd f0 34 0d 3d f4 e8 03 3d
       -0.031309523 -0.041447468 0.034474313 0.032204583
000140 60 bd ee bc 14 98 d8 bc 70 d9 78 bd 9f 2e 40 bd
       -0.029143035 -0.026439704 -0.06075424 -0.04691946
000150 31 6c 01 bd cc 15 0e bd 87 ba 8c bd f8 4f 09 bd
       -0.03159732 -0.034688756 -0.06871515 -0.03352353
000160 88 6d d7 bc 10 06 80 bc 59 83 0e 3d 8a 68 4e bd
       -0.026297346 -0.01562789 0.03479323 -0.050392665
000170 e0 16 4d 3b 19 3b c1 3b 78 b0 d9 bc 6d 42 82 bb
       0.0031294152 0.0058969376 -0.026573405 -0.0039752037
000180 23 6a 60 3b 86 a3 83 bd 5b 5f b3 bc 76 09 4f bd
       0.003424295 -0.06427674 -0.021896055 -0.050546132
000190 32 b4 6a bd ab b0 28 bd be 5c 0c 3d d9 9f 35 bd
       -0.057300754 -0.04118411 0.034268133 -0.044341896
0001a0 00 1a aa 3c 0b a1 be bc 80 c1 db bd 04 0e 09 3d
       0.02076435 -0.02327015 -0.107302666 0.033460632
0001b0 54 6d a4 3c c3 d7 82 bc 21 5a 23 3d e0 81 28 bb
       0.020071663 -0.015972024 0.039880875 -0.0025712177
0001c0 9a 01 b1 bc 3e 05 63 bc 76 ab a8 3a 4c ba 09 bd
       -0.021607209 -0.01385623 0.0012868482 -0.033624932
0001d0 9f 7f d2 3b 80 ae 7b bc 20 af 2e 3d 80 29 6c bd
       0.006423905 -0.015361428 0.04264748 -0.057656765
0001e0 96 1d f4 3c e0 da 13 bd b4 e9 38 3c 4e 96 45 bd
       0.029799264 -0.036097407 0.011286188 -0.048239045
0001f0 ca a8 6b bd 7b 47 d6 bc c0 b8 c0 3c 8e a8 33 bd
       -0.057534017 -0.026157131 0.023525596 -0.04386192
000200 80 53 92 3a 30 8f f7 3b ac a1 b8 bc 64 bd 29 3c
       0.0011163801 0.007554911 -0.022538029 0.010360096
000210 0c 3e 65 bd c0 96 25 3b d1 60 96 bd 15 be 5b bd
       -0.055967376 0.0025266856 -0.07342685 -0.053648073
000220 a8 6c 1b bc 52 bf 31 3d 9e c4 dd bb 93 54 a2 bc
       -0.009486355 0.043395348 -0.0067678234 -0.019815719
000230 98 50 3a bd 00 69 1e 3d 90 a7 5a 3b 86 26 08 bd
       -0.045487016 0.038674355 0.0033364035 -0.033239864
000240 6c cd 34 bd 25 75 f9 3c 79 03 99 3b f0 9b c1 bc
       -0.044141218 0.030451367 0.0046696034 -0.023633927
000250 ee 06 b3 3c f8 76 ec 3c b0 0f e6 3a 54 b9 1d bd
       0.02185389 0.028865322 0.0017552283 -0.03850682
000260 60 ed 76 bd 4f 62 14 3d 60 fa 24 bd af b8 11 bc
       -0.060284972 0.036226567 -0.04027784 -0.00889413
000270 40 26 a3 3a ce df 53 3d e6 7d 1c bd e8 9e 6f 3d
       0.0012447312 0.05172711 -0.038206004 0.058501154
000280 a7 6f 63 bd 02 36 d2 3c d0 13 95 bc 40 40 f8 3b
       -0.0555264 0.025660519 -0.018197924 0.0075760186
000290 d1 9b 75 3c 0a 46 02 bd c0 5e 12 bd 52 64 b3 3c
       0.014990763 -0.031805076 -0.035734892 0.021898422
0002a0 58 99 53 bd f6 78 14 bc 6f b8 92 bd d3 96 2a bd
       -0.051659912 -0.009062042 -0.07164084 -0.041647743
0002b0 b3 27 0a 3a 28 50 56 bd 12 81 93 bb 68 74 b2 3c
       0.0005270198 -0.052322537 -0.0045014704 0.021784022
0002c0 f2 93 34 3d e2 dc 11 3d 6f f5 15 3d ac 3e 7e 3d
       0.044086404 0.03561104 0.036611017 0.062071487
0002d0 04 92 e5 bc 5c b3 49 3d d1 d6 62 bc 62 e9 4e 3d
       -0.028023727 0.049243316 -0.013845162 0.05051554
0002e0 ba c2 4e 39 42 d3 1a bd 6c aa 98 3c 51 ce 37 3d
       0.00019718232 -0.037799127 0.018635951 0.044874493
0002f0 c4 ae 80 3c a1 4e fc 3c 5b a0 98 bd 97 07 8d bd
       0.015708335 0.030799212 -0.074524604 -0.06886213
000300 0e d5 ca 3b 48 8c 0a bd 98 9e 61 bd 35 ee 36 3d
       0.006189949 -0.03382519 -0.055082887 0.044660766
000310 60 98 fb bb d9 44 f1 3c 60 5d 45 3c 0f 39 36 bd
       -0.0076780766 0.029451774 0.012046188 -0.04448801
000320 ad d8 00 bd f4 1b b7 bc 46 d2 9c bc e8 4e ae bc
       -0.031456638 -0.022352196 -0.019143235 -0.02127786
000330 6c 26 b4 3c 80 2b 4a bd d4 30 b4 bc 42 d0 37 bc
       0.021990977 -0.04935789 -0.02199594 -0.011219086
000340 89 ce 90 bc df 1f b6 bc b7 6a e1 ba b0 72 88 bd
       -0.017676609 -0.022231994 -0.0017197941 -0.066625
000350 1f f1 67 3d e0 f0 fd 3c 58 af b7 3c 8a 98 90 bd
       0.056626435 0.030998647 0.022422478 -0.070603445
000360 2a 18 87 bb 58 0a 21 bc b6 e8 5b 3d a6 1f 27 3d
       -0.0041227536 -0.009829126 0.053688727 0.040801667
000370 a0 9d 8c 3c 45 03 77 3c 75 a7 96 bc a0 a2 68 3a
       0.017165005 0.015076463 -0.018390397 0.00088743307
000380 dc 43 72 3d 70 45 4a 3c f6 a0 0e bd dc 49 a3 bd
       0.059146747 0.012345657 -0.034821473 -0.07973072
000390 a4 a4 c4 bc 69 7d e5 3c 54 66 a7 3c a8 6f d0 bc
       -0.024004288 0.028013902 0.020434536 -0.025443867
0003a0 00 4f 33 bd be 61 1f 3d 91 3b 01 bc d0 a7 9a bd
       -0.043776512 0.038911574 -0.007887737 -0.07551539
0003b0 c0 57 dd 3b 33 cf 57 bd a0 7e 1b bd ac e2 18 bd
       0.0067548454 -0.052687835 -0.037962556 -0.037325546
0003c0 a2 c5 58 bd 6b 5d b4 bd c7 5d 56 bd f0 d4 df 3b
       -0.052922852 -0.088068806 -0.052335527 0.006830804
0003d0 5c 9f 9b bc 40 61 15 3c d4 1b ac 3c 49 c3 e7 bb
       -0.018996887 0.0091174245 0.021009363 -0.0070728404
0003e0 6e 57 7f bd d4 b1 86 bc e0 69 54 bb a7 7f 4f bc
       -0.06233924 -0.016442217 -0.003241174 -0.012664712
0003f0 7c ba 61 3d 3c a2 d6 bc b0 ca 66 3c a0 00 c9 bc
       0.055109486 -0.026200406 0.01408641 -0.02453643

hidden_layers.1.bias f4 [256]
000000 1a 87 a1 3c f2 2b a1 bd 41 f5 ab 3c 26 ba 9a bd
       0.019717742 -0.0786971 0.02099097 -0.07555036
000010 fc fa 23 bd 1b 88 b3 bd c1 be 11 3d ce 07 70 bd
       -0.04003428 -0.087661944 0.035582308 -0.058601193
000020 1d d3 4a bd 31 e9 d9 3c 94 6c 17 bd 24 cd a2 bc
       -0.04951774 0.026600452 -0.036968783 -0.01987321
000030 d0 18 84 ba 7f c8 36 3b 3b 71 33 bd a9 39 0b bd
       -0.0010078195 0.00278905 -0.043809157 -0.033990536
000040 16 d6 2c bd 87 df d1 bd f9 0b 68 bd cc 34 88 ba
       -0.042196356 -0.102477126 -0.056652043 -0.0010391711
000050 3d 0e dc bd 13 9e 34 3c 4f ce eb 3d 16 78 09 3d
       -0.10744903 0.011024016 0.115139596 0.03356179
000060 ac 1e 05 3e 97 9a 60 3c 91 6f ff bb e0 c9 c0 3c
       0.12999982 0.013708732 -0.007795282 0.023533762
000070 07 52 ae bd 8b 27 3a bc c0 34 a0 bc b4 06 c2 3b
       -0.08511739 -0.011361967 -0.019556403 0.005921209
000080 7e eb 74 3b 40 5c 62 3c f8 91 ce 3c fd 0c 0f 3d
       0.003737181 0.013815939 0.025216088 0.034924496
000090 3a a2 a2 3c b3 33 8d bd 21 7b e9 3c 62 59 a8 bd
       0.019852746 -0.068946265 0.028501095 -0.082201734
0000a0 3c a4 89 bd 6a 79 3e bc b8 db 98 bc 93 f1 09 3e
       -0.06720778 -0.011625627 -0.018659458 0.1347106
0000b0 e3 b4 50 bd ba ae 56 bd 39 33 40 bd d0 6d c2 bd
       -0.050953757 -0.052412726 -0.04692385 -0.09493601
0000c0 27 8f cc 3c 25 16 82 bd 52 5c 69 bd 7a 37 e7 3d
       0.024970604 -0.0635188 -0.05697281 0.11289878
0000d0 b1 22 fd bc d1 ea 2b 3d de 51 d4 bb 70 25 ad 3d
       -0.030900331 0.041971985 -0.006479486 0.08454406
0000e0 26 c0 67 bd bd c0 88 3d 44 0c 93 bd 66 90 08 3b
       -0.05657973 0.06677387 -0.07180074 0.0020838021
0000f0 ab 82 d4 bc e4 26 be bd 84 76 fe bc 78 d2 93 bd
       -0.025941214 -0.092847615 -0.031062372 -0.07217878
000100 49 00 22 3d 45 e0 46 bd 3f 1b 3a bd c7 89 3b bd
       0.039551053 -0.048553724 -0.04543614 -0.04578569
000110 28 c3 92 bd c0 ea 71 ba 33 bf a1 3c 8c f7 66 ba
       -0.07166129 -0.0009228401 0.019744491 -0.0008810691
000120 6e 90 50 3d a1 b2 84 3d e1 08 bc 3d bc 45 9d bd
       0.05091899 0.06479383 0.09181381 -0.076793164
000130 d1 a6 34 bb cc 46 0b bc ad d1 4f bd c6 4a 99 bd
       -0.002756525 -0.008500766 -0.05073707 -0.07484965
000140 f7 b5 df bd e2 57 ba bd 2f fb 7b 3c fb 48 c4 bc
       -0.10923379 -0.090987936 0.015379711 -0.023960581
000150 83 b8 19 bd 55 53 2d 3d f1 d2 8c bd 0a 38 50 3d
       -0.03752948 0.0423158 -0.068761714 0.050834693
000160 de c3 cc bc 9d 1b a5 bd 27 31 9d bd 1b 3f 6a bb
       -0.02499574 -0.080619074 -0.07675391 -0.003574318
000170 ce 83 23 3b c0 bb 54 3d 80 49 b2 bb 59 ef 08 bc
       0.0024950388 0.051936865 -0.005440891 -0.008357846
000180 93 ae d3 bc f5 3e 8f ba d6 e8 39 3d 26 c2 cb bc
       -0.02584008 -0.0010928797 0.045388065 -0.02487285
000190 4a d9 fd 3b 48 46 7c 3c 08 7e 8f bc 4a d6 30 3d
       0.00774685 0.015397616 -0.017516151 0.043173112
0001a0 54 e5 7f 3d ab 53 2a bd 78 7a 07 bd 01 19 22 bc
       0.062474564 -0.0415837 -0.03307578 -0.009893657
0001b0 4e fe 64 bc 9b 76 aa 3c d4 64 9f bd 5a f0 b1 bd
       -0.013976647 0.020808509 -0.07782903 -0.086884215
0001c0 cb 74 88 bb 8d c3 4a 3d 1b fc db 3b d8 2f f5 bc
       -0.0041643134 0.049502898 0.006713403 -0.02993004
0001d0 00 34 bf bd b2 94 29 bd ae 18 81 3c d0 32 74 3c
       -0.0933609 -0.041401573 0.015758839 0.014904693
0001e0 eb 94 a0 3d 65 8d 6f bb a4 6e 9e 3c 66 62 27 3b
       0.07840904 -0.0036552784 0.019339867 0.0025540828
0001f0 b9 97 d2 bc 8d aa 81 bb dc 5c 4a 3c 64 60 d3 bc
       -0.025707113 -0.003957099 0.012351241 -0.025802799
000200 1e aa 81 bd a7 a5 83 3d 33 15 71 bd 0e 91 b9 bc
       -0.063312754 0.0642808 -0.058858108 -0.022652175
000210 09 b4 fa bc f2 22 22 bd b3 f4 c6 bc 55 b7 a0 bc
       -0.030603426 -0.039584108 -0.024286604 -0.01961867
000220 58 c6 6c bc d6 d4 1c bd 17 f0 a8 bc 0a 1d 19 3b
       -0.014451586 -0.038288914 -0.020622296 0.0023363256
000230 1d bf 98 bd 05 83 00 bc 18 f1 91 bd 24 91 b6 3c
       -0.07458327 -0.0078437375 -0.07126063 0.022286005
000240 7c a5 0a bd 01 6b 38 bc cf 87 e6 3c ed 96 06 3d
       -0.033849224 -0.0112559805 0.02814093 0.032858778
000250 4b f8 ad bd 90 ea 8b 3c 10 4a 15 3d cd 11 ae bd
       -0.08494624 0.017079622 0.036447585 -0.08499489
000260 a6 14 fb bc 03 89 80 3d de ba 80 3d 5b c1 1a bd
       -0.030649494 0.06276133 0.06285642 -0.037782054
000270 fe 01 02 3d 3c a8 32 bc 83 aa 28 bd 97 72 b9 bc
       0.03174018 -0.010904368 -0.041178238 -0.022637649
000280 ba e6 df 3c 07 d1 1c bd 6a e1 7b bd cd ee b8 bc
       0.027331699 -0.03828528 -0.06149427 -0.022574807
000290 44 b2 71 bb bf dc d2 3b 56 f1 1a bd e0 a2 4d bd
       -0.0036879936 0.0064350064 -0.037827812 -0.050204158
0002a0 82 d0 6c 3b 5b 75 e7 3b 1c f4 89 bc 71 be 64 bd
       0.0036135023 0.0070635504 -0.016840033 -0.05584568
0002b0 f9 96 a7 bd e3 e2 52 3d 33 42 b6 bd d1 f4 88 bc
       -0.081830926 0.051485907 -0.08899345 -0.0167183
0002c0 f2 90 62 bd 0c e6 fa 3d 5b ee 1f 3c a7 4b b5 3c
       -0.055314012 0.12250909 0.009761418 0.0221308
0002d0 b2 ff 90 3d 3f 08 ee bc 11 90 9d bd e4 07 0d bd
       0.0708002 -0.029056666 -0.07693494 -0.034431353
0002e0 d1 55 18 3d f5 77 d8 3d 0d a1 96 bd c8 17 7b 3c
       0.037191216 0.10569755 -0.07354937 0.015325494
0002f0 ff 4c 1e bd 50 6a 12 3c 07 4b cd bd dd 3c 31 bd
       -0.038647648 0.00893648 -0.10024076 -0.043270934
000300 21 ae 6a 3d c2 1d 95 bd 1c 89 8c 3d e8 11 c1 3c
       0.05729497 -0.072810665 0.06862089 0.023568109
000310 15 41 b5 bc 84 c6 41 bd 97 f5 9b bd 85 68 2e bd
       -0.02212576 -0.04730846 -0.07615202 -0.042580146
000320 e8 e0 b1 3b 46 0c 2f bd cf 78 f2 bc ed d4 12 3e
       0.0054284222 -0.042736314 -0.029598622 0.14339037
000330 d9 2f 1f 3d 20 78 bd bd ec 6f 5c bc 7f 3d 7c 3b
       0.03886399 -0.09251428 -0.013454419 0.0038488803
000340 bb 2e 5b 3b e4 d4 22 bd 65 b8 d1 bc 81 b8 dc 3c
       0.0033444602 -0.03975381 -0.025600621 0.026943447
000350 b7 73 31 bd cb 7d 15 bc 6c ab 89 bd fa 45 7c bb
       -0.043323245 -0.00912423 -0.06722149 -0.0038493858
000360 af 61 c5 bd 4b 28 e0 bd 5b 22 ae bd f2 80 48 bd
       -0.09637772 -0.10945185 -0.085026465 -0.048951097
000370 88 28 60 bd 2d c9 74 bd d7 d1 46 bd c7 4f 6d bd
       -0.054726154 -0.05976217 -0.048539963 -0.05793741
000380 3c b6 ce 3c d1 1f ad bc 3b 43 07 bd 73 8e 0c 3d
       0.02523338 -0.021133335 -0.0330231 0.034315538
000390 14 e8 59 3d 39 85 12 bc 53 a1 38 bc bd 77 7e 3c
       0.053199843 -0.008942896 -0.011268931 0.0155314775
0003a0 f4 ca 3e 3d 71 7e 47 bd db 26 02 bd 50 20 2b bd
       0.04658027 -0.04870457 -0.031775337 -0.041778862
0003b0 15 3e b5 3c 74 d8 b9 3b 3a 58 d0 bc f0 bf 35 3c
       0.02212433 0.005671555 -0.025432695 0.011093125
0003c0 ef 67 73 bc 06 07 e4 bd dc b6 28 3d 53 8c 0b bd
       -0.014856323 -0.11134152 0.041190013 -0.03406937
0003d0 db 7d 8f bd f2 62 aa 3d 17 27 03 3c 19 e7 2f bc
       -0.07006427 0.083196536 0.008004925 -0.01073625
0003e0 87 d4 f3 3c 46 e0 10 bb 64 13 81 bd d1 f3 0f 3e
       0.029764427 -0.0022106334 -0.063025266 0.14057852
0003f0 d9 20 10 bd 92 f5 16 3d 18 15 01 bd 8c d8 3f 3c
       -0.035187576 0.036855288 -0.031514257 0.011709344

output_layer.weight f4 [3, 256]
000000 9c 38 df bc 62 57 21 3b d2 f6 62 bd f0 64 72 3c
       -0.027248673 0.0024618735 -0.055411167 0.014794573
000010 8e d1 74 bb cd 07 17 bd b4 f6 0e bd 63 42 c8 3c
       -0.003735635 -0.036872674 -0.034903243 0.024445718
000020 ec b1 3e bd a3 42 07 bb 04 6d 77 bc f1 52 ba bc
       -0.0465564 -0.0020639084 -0.015101675 -0.022744628
000030 a6 65 0b 3c d2 e9 10 3d 7e 96 01 3d e2 8e 18 bd
       0.008508122 0.03537924 0.03163766 -0.03724564
000040 50 e4 3d 3c 8a e0 1b bd 37 a9 35 bb bf 07 7f bd
       0.0115900785 -0.038055934 -0.0027719268 -0.062263247
000050 c8 a4 f5 bc 5c be 0b 3d 88 66 f5 3c a6 17 6a 3a
       -0.0299858 0.034117088 0.029956117 0.00089299155
000060 e0 70 0f 3d ff b2 ab bc 9b 03 6f 3c 17 8c 21 3c
       0.035019755 -0.020959375 0.014588262 0.00986006
000070 a7 c4 02 3c 43 99 aa bd d8 da 24 3d 3f c0 ab bc
       0.007981456 -0.083300136 0.04024777 -0.020965694
000080 14 9b 05 bb ce 23 9c 3a df 06 34 bd 6b bc e8 bb
       -0.0020386623 0.0011912526 -0.043951865 -0.0071025393
000090 2f af 49 bd 61 83 46 bd 6f c6 12 bc a7 b7 29 3d
       -0.049239334 -0.048465136 -0.008958443 0.04143491
0000a0 18 af 76 3c 68 95 40 bd 9b 45 dd bc 59 de 40 bd
       0.015056394 -0.047017485 -0.02701073 -0.047087047
0000b0 07 0d 48 bc 70 f8 c1 3b e4 6c 71 bb 89 b6 9e 3b
       -0.012210137 0.0059195086 -0.0036838586 0.004843537
0000c0 7c 93 61 3d 49 fb d4 3b 8b 22 17 3c 0f b8 9f bd
       0.055072293 0.006499682 0.009224544 -0.07798778
0000d0 b8 67 23 bc 1a 4e a7 3c 62 29 91 bd 39 93 11 3d
       -0.009973459 0.020422984 -0.07087971 0.035540793
0000e0 23 5f 87 3c 85 42 18 3c 94 c9 dc 3c c8 0a e0 38
       0.016524857 0.009293203 0.026951589 0.000106831605
0000f0 31 55 2e b8 10 75 27 bc 65 41 dd bc 75 ba 31 3d
       -4.1564173e-05 -0.010220781 -0.027008722 0.04339071
000100 47 d0 7f bd f4 76 28 3d a3 17 ff 3c 4b ca 3e bc
       -0.062454488 0.041129068 0.0311392 -0.01164491
000110 4c e5 89 3c a1 18 f4 bc 22 99 b2 3c 1f 92 0b 3d
       0.01683297 -0.0297969 0.021801535 0.0340749
000120 44 31 0f bd 16 34 c4 bd f4 68 b7 bd 4c ff c3 3c
       -0.034959093 -0.09580247 -0.08955565 0.023925446
000130 72 77 1b 3d 77 b7 92 bc 15 c8 94 bd d6 9c 1c bc
       0.03795571 -0.017909748 -0.07264725 -0.009558877
000140 91 de 00 bd 11 a3 2f bd 84 ec 23 bd e1 c6 51 bc
       -0.031462256 -0.04288012 -0.04002048 -0.012803764
000150 40 74 79 bd fb 62 88 bd 9f 31 8e 3d 30 df 51 bd
       -0.06090188 -0.06659504 0.06943058 -0.05123824
000160 62 07 09 bd 0b fd dc bc 18 13 89 3a a4 ba 13 bd
       -0.033454306 -0.026976129 0.0010457961 -0.036066666
000170 9e b2 91 3b 63 b5 68 3d b1 14 8f 3d 3e ed 20 bc
       0.0044463417 0.05681361 0.069863684 -0.009822188
000180 aa 8d 10 3d 4a 48 6e 3d 1f 0b 01 3d 21 93 4d 3c
       0.03529135 0.05817441 0.031504747 0.012547285
000190 9c 40 98 3c 1f 82 16 bd 04 1d 60 bc 25 d7 2e 3e
       0.018585496 -0.036745187 -0.013678793 0.17074259
0001a0 c4 0d 24 3d 9a d5 15 3d 92 c0 31 bd cc ac 0c 3d
       0.04005219 0.03658066 -0.04339654 0.03434448
0001b0 30 f5 49 3c 75 81 ec bc 23 42 3b 3d bd a6 c2 3d
       0.012326524 -0.028870324 0.04571737 0.09504459
0001c0 d0 a6 85 3b eb 52 28 bd 1f 6a 7b 3b f4 a2 a7 bd
       0.0040787235 -0.0410947 0.0038362814 -0.08185378
0001d0 a5 93 a4 bc e1 9e 0b 3d 0d be 38 bd 55 0c 4a 3c
       -0.020089934 0.034087066 -0.04510312 0.012332042
0001e0 c9 1e 94 bd 69 81 35 3c c4 9c 76 3b 83 1b 1a 3b
       -0.07232434 0.011078217 0.003763006 0.0023514933
0001f0 7b d9 06 3d c1 54 db bb 42 74 5e bc 3c ea 98 3c
       0.03292225 -0.006693453 -0.013577523 0.01866638
000200 af 92 07 3b c6 20 8e bc b2 8c 41 bd e0 1f 52 3c
       0.0020686795 -0.017349612 -0.047253318 0.012824982
000210 83 f7 b7 3b 1d f9 81 3c d7 7f 4c bc 2c 48 dc 3b
       0.0056142225 0.015865857 -0.012481651 0.0067224707
000220 f0 51 1c bd 19 2a 82 bc 4f 25 e7 ba a1 0b 89 bd
       -0.03816408 -0.015889214 -0.001763502 -0.06691671
000230 80 06 24 bb 54 97 7f 3c 4f ff 81 bc 91 d4 0c bd
       -0.0025028288 0.015600044 -0.015868811 -0.034382407
000240 e0 2c ac 3c 2f 3a 31 bd f4 1f 11 3d 37 28 dc bd
       0.021017492 -0.04326838 0.035430863 -0.10749858
000250 68 4c 2e 3d 70 bd 84 3a 4a e4 9b 3a d2 43 c0 3c
       0.042553335 0.0010127258 0.0011893597 0.02346984
000260 bc e1 b5 3d 30 ad 97 bd a6 f5 ef 3c 42 26 e1 3c
       0.08880946 -0.0740608 0.029291939 0.027484063
000270 18 50 45 3c 4c 35 28 bd 22 49 c8 bc 31 2e 77 bd
       0.012043022 -0.041066453 -0.024448935 -0.060346786
000280 03 ba 1c bd 40 8f 40 3d b2 60 3d bd ad 2a 23 bd
       -0.038263332 0.047011614 -0.046234794 -0.03983562
000290 19 b1 35 bb 78 af ba bc 90 e9 da 3b 41 ef c9 3b
       -0.0027723967 -0.022788748 0.006680675 0.0061625545
0002a0 d5 de 8f 3b 08 fb ec bb a2 dd 5d 3d b9 28 87 bd
       0.0043905773 -0.0072320737 0.054166444 -0.06599564
0002b0 54 a1 18 bc 55 1d 0b bd 46 08 39 bd f2 bf 52 3d
       -0.009315807 -0.03396352 -0.045173906 0.051452585
0002c0 88 77 53 3c b6 72 3c bd 2e 51 c3 bc 4c a7 dd bc
       0.012906916 -0.046007834 -0.02384242 -0.027057312
0002d0 cc 70 65 bc c3 fa bb bd 22 0a f3 3c 9a 24 b8 bc
       -0.014003944 -0.091786884 0.029667918 -0.02247839
0002e0 14 71 b4 bd 1f e6 90 3b fb af 88 3c 2d 82 41 bc
       -0.088106304 0.004421964 0.016685477 -0.0118108215
0002f0 bb bc e1 bb 42 39 19 bc 82 d4 24 bb af f0 eb bc
       -0.0068889535 -0.00935203 -0.0025151079 -0.02880129
000300 88 00 4a bd 60 a0 d0 3c e2 f9 ad bc f4 14 e8 bc
       -0.049316913 0.025467098 -0.021237317 -0.028330304
000310 b9 45 bd 3c 80 ce ff 3c ec 14 3f bc 8d 92 25 3d
       0.023104535 0.031226397 -0.011662703 0.040422965
000320 56 66 cd bd 82 66 32 3d 58 5b 79 bc 3d c0 7e bd
       -0.10029285 0.04355479 -0.015219532 -0.06219505
000330 f3 ee 57 3d 25 10 62 3d d6 1d db 3c e3 cf 96 bc
       0.052718114 0.055191178 0.026747625 -0.018409675
000340 52 dc 33 bd 79 52 72 3d d4 ad 53 bc 0d 1d 00 3d
       -0.043911286 0.059160683 -0.012919862 0.031277705
000350 dc 10 66 39 61 7b 8b bc 48 df b9 ba 1e b6 2d 3d
       0.0002194079 -0.017026605 -0.0014180923 0.04241001
000360 b9 94 e9 38 3f c0 06 bd d4 03 b8 3b 30 e2 9f bc
       0.000111380075 -0.032898184 0.0056156907 -0.019517034
000370 8c 3e af 3c 62 f8 80 bd 0c 4a f3 3c 5f aa 4a 3d
       0.02139213 -0.06297375 0.029698394 0.049478885
000380 15 bb 41 bd 62 8b db bb 6f 06 f8 3c c0 ca 6c bd
       -0.047297556 -0.0066999653 0.030276505 -0.057810545
000390 f3 cf a5 3d 54 43 91 3c 3f b3 2f be 4a 28 00 3c
       0.08096304 0.0177323 -0.1715822 0.007822106
0003a0 9e 94 7f bc cc bc 00 bd cc e1 0c 3c bb bf f1 bc
       -0.015599398 -0.03143005 0.008598756 -0.02951037
0003b0 86 b0 0a 3d f9 98 1b 3d b7 7d 3e 3c eb 37 56 3d
       0.033859752 0.037987683 0.011626652 0.05229942
0003c0 83 be df ba 5c 18 20 3c 90 a3 f0 bc e6 f9 53 bd
       -0.0017070327 0.009771433 -0.029374868 -0.051751994
0003d0 5a b3 9c 3d 3f bf 56 bd b7 ad 9a bd 77 90 ea 3c
       0.07651396 -0.05242848 -0.07552665 0.02863334
0003e0 ef 76 e3 3c c7 22 3a 3c 3b 6d 90 bb bd 60 37 bd
       0.027766673 0.011360831 -0.0044075525 -0.04476999
0003f0 3e ba 8b 3d 43 34 7c bc 09 93 d3 3c 33 d5 77 3a
       0.06822632 -0.01539332 0.025826948 0.00094540714

output_layer.bias f4 [3]
000000 a3 ae 6a bd f8 2a 4f bd 66 a8 db bc
       -0.057295453 -0.050578088 -0.026813697
